model.pth (torch, 822015 bytes, 8 tensors)

conv1.weight f4 [8, 1, 3, 3]
00000000: 9916 8abc f8d6 cf3d 5567 77bd 1bde 95be
00000010: 9bf8 d4be 855c b0be 63d0 9ebe 00a6 c5be
00000020: 48dc d2be 2d8f 99be f981 f5bd cf70 e83e
00000030: 5b5d 8bbe b9ce 4fbe a29c f93e 410a 7ebe
00000040: 435b 943e 6b3b b0bc 48af e63c 557f f8be
00000050: 568b f13e af75 ffbd da68 87be ad8b c73e
00000060: 1980 073f 9d0f 37be 42fc aabe 8c81 83be
00000070: c164 8e3e 1fa6 5e3e 5cca 3d3d a570 d7be
00000080: 6c8d bf3e 9e71 323e 8914 9abe 69b6 40bd
00000090: 089c 5e3e c848 74bb d077 363e 481a cdbe
000000a0: c0f7 b8be 7616 be3e c2e8 d3be 7c7c b13d
000000b0: f5f6 913e 6948 d1bd 7fcd 8ebe 5fb6 373e
000000c0: 3bf4 11bf da54 553e 65f0 9f3e d549 6c3c
000000d0: 6fca 8c3e 36a7 e73d 64fc e8be 7201 a4bd
000000e0: b60e 733d 4c99 e2be b69b d5be 1301 efbd
000000f0: a890 d83d 764d 253e b485 eb3d 1f17 cdbe
00000100: e864 a43e 0802 bdbd 599f 1abe 9898 dcbe
00000110: f028 863d 7b64 493e 665d 873e 1c80 3b3e
-0.016856479 0.10148424 -0.06040128 -0.29271016 -0.4159592 -0.34445587 -0.3101836 -0.3860321
-0.41183686 -0.29992047 -0.11987681 0.45398566 -0.27219662 -0.20293702 0.48752314 -0.24808599
0.28975877 -0.021512708 0.028159752 -0.48534647 0.47176617 -0.12473618 -0.26447183 0.38973752
0.52929837 -0.1787705 -0.33395582 -0.25684774 0.27811244 0.21743058 0.046335563 -0.42078128
0.37412584 0.17426154 -0.30093792 -0.04704896 0.21739209 -0.0037274826 0.17819142 -0.40059114
-0.36126518 0.3712651 -0.41388518 0.08666322 0.28508726 -0.10218889 -0.27891156 0.17940663
-0.5701329 0.2083315 0.31238094 0.0144219 0.27498195 0.1131119 -0.4550506 -0.08008088
0.0593402 -0.4425758 -0.4172036 -0.11670127 0.10574466 0.1614283 0.11500111 -0.40056702
0.32108235 -0.09228903 -0.15099849 -0.4308517 0.06550777 0.19667237 0.26438445 0.18310589

conv1.bias f4 [8]
00000000: 63a1 0fbf d2e0 a03c c4ec 7bbb ced6 a63d
00000010: 07c3 e13c 260a 603e 4b48 39bc 5126 a2bd
-0.5610563 0.019638453 -0.0038440684 0.081464395 0.027558817 0.21878871 -0.01130874 -0.079174645

conv2.weight f4 [16, 8, 3, 3]
00000000: b026 febd 4b16 a13d 5ada 003e 75a3 ed3d
00000010: 8e99 6c3e 45b2 003e 9c8e 53bd b666 77bc
00000020: 0dfb 883c 77ff 183d c400 29bd 952c 5c3c
00000030: b577 1cbe 9e34 03be 32a2 d83d 1bf5 0dbd
00000040: 5dea f63c 26ea 9abd 2308 a13d 2851 5bbd
00000050: 43c7 05be 9851 953c 13f4 17be 44b5 033e
00000060: 2fbd 9b39 0c6e a43c 225b d1bc 6e47 8dbd
00000070: 8f40 10bd 1f58 aebd 12e3 af3d b983 9dbd
00000080: bbaa 1ebe 69ac a83d 89ec 49bd f47d 00be
00000090: dead 0c3d 0655 61be 0664 a23c e04a 54bd
000000a0: c614 133e 546a 7c3e c092 5a3d 12c2 d23d
000000b0: f5cb 8ebd ae71 403e c2b8 16be e4c3 a2bd
000000c0: 0e71 54be 7942 e4bd 3a0a 23be e25e fa3b
000000d0: 56cf 0cbd efbd c6bd 8a96 4a3d 15cf 4dbe
000000e0: 6e03 8c3d 3a76 1dbd ad78 27bc 9463 b93c
000000f0: 08d2 93bc 9e26 903d e547 cabd ceda 423d
00000100: 3069 35bd 4ec9 143c 519e f43c 00cd 453e
00000110: 36b4 05bd a69a e53d 2c38 9a3d eaef b3bc
00000120: b81e d7bc ee04 c0bc 1f5e 93bd 020b 843e
00000130: c4b9 cfbd a811 1ebe 35a5 933d 443c 32be
00000140: 945a ea3d 6b53 43bc 220a 6bbd 3acb 07be
00000150: 532f 26bc 395e 963e 635a b93d 3240 5dbd
00000160: a06f 283e 33f0 2bbd 28d6 2fbd 5222 7ebe
00000170: 1dd1 84be d566 7a3e d7f9 d43d 94eb 503c
00000180: 6271 93bc cf42 09be 67ab abbd dc5d 283e
00000190: c39f 00be cfed 83bd 1161 503e 1320 9d3e
000001a0: 51c0 b03d 7819 cebd 187b 3e3d 183e 4b3d
000001b0: 109d e5bb ff71 5b3d 8494 30be b4bf 713e
000001c0: ba30 653e 2588 e8bd abb7 6fbd ec19 b6bd
000001d0: 7af4 5ebe c78f 23bc 3327 a83d f4bc d43a
000001e0: 3832 2bbe 764d d93d 37e1 863d f983 04be
000001f0: 5a5d d13d 8d5c 1dbd 1236 24be ccd8 43bd
00000200: 5932 11bd b75b 4e3e deab e83d bce3 57bd
00000210: 1aa9 4a3c 2611 753d a026 d93b 8ee2 11be
00000220: 5f1c c0bc 59c2 c5bd 249e cdbc c541 dd3c
00000230: 9832 09be a208 04bc a178 a9bd 0b4b ebbd
00000240: c0c1 413e 4faf 493e 5a8a 533e f718 6c3d
00000250: f395 ccbd 19d4 c9bd 4f69 03be 3c35 51be
00000260: d20c f2bd cd67 9abe b5c7 cabe efd9 08bd
00000270: 2b3c 9dbd c029 25bd e9bb ec3d c348 6c3d
00000280: 267f e8bc ada3 f9bc e25b 323d 11e3 4dbe
00000290: cce9 6fbc 0492 a6be 1859 74be b1b0 823c
000002a0: d8a7 11bd a2ec a938 8404 aabd ccae 5a3e
000002b0: 3fe4 efbc dd56 2bbe 6faf 27be 2188 40be
000002c0: 960f 45be eafb 243e a9d9 403d f7e1 edbb
000002d0: 94a4 00be 0f5f f63d e826 803e 65bf 8ebd
000002e0: f4f5 d13d 97c8 b2bd 0097 073e 4b11 cc3d
000002f0: bd11 9ebe f029 afbe 6bd4 60be 65d3 8b3d
00000300: d12d 6cbb 0c57 133e e073 7f3e b891 953e
00000310: 0443 953e 9860 8c3d 28d1 0fbe 38e1 df3d
00000320: ceb8 633e a44e 0cbe 0815 e13d 8733 9b3a
00000330: 140a 063e eaeb bdbd 0657 34be 2791 52be
00000340: b465 0d3e 3a16 323e 91d7 ecbd 250b 7c3e
00000350: 2e67 8b3d e5a3 863e 6b1e be3d e46c 413c
00000360: ca58 16be b5b8 db3c e3f5 913e d510 38be
00000370: 8768 8f3d 3d49 083e 78b7 153e bea5 a6bd
00000380: 96d9 2dbe bf38 c6bd ba88 e73d 507d fd3d
00000390: e045 3a3e 02a8 cf3c 5b1f 10be 6e7a dbbd
000003a0: 6aaf d43d ee16 cdbd abc5 103d e467 4a3e
000003b0: c30b 613e 61e0 d73d e53a 793e 5c31 87bd
000003c0: 3c27 253e 2259 7a3e 1c8e 873d 9df6 cb3d
000003d0: e488 123e c6ce 813e df87 443d 90cb 583d
000003e0: 8ca2 e0bd 3843 c6bd 2fec 453e acbe 8b3d
000003f0: 5226 2cbd e495 6ebd f837 b33d 6b05 2c3c
-0.12409723 0.0786558 0.12583295 0.116034426 0.23105451 0.12568004 -0.051649675 -0.015100172
0.016721273 0.037353005 -0.041260496 0.013438364 -0.1528004 -0.1281304 0.10577811 -0.03465758
0.03014105 -0.075641915 0.0786288 -0.053544194 -0.13064294 0.018227383 -0.148392 0.12862116
0.00029704857 0.020072006 -0.02555615 -0.0689839 -0.035217818 -0.085129015 0.08588232 -0.0769114
-0.15494816 0.0823601 -0.049297843 -0.12548047 0.0343455 -0.2200509 0.019823086 -0.05182922
0.14363393 0.24649936 0.053362608 0.10290922 -0.069724955 0.18793365 -0.14718917 -0.079475194
-0.20746252 -0.11145491 -0.1592187 0.0076407054 -0.03437742 -0.09704196 0.04945997 -0.20098527
0.06836592 -0.038442828 -0.010221642 0.02263049 -0.018044487 0.07038616 -0.09876994 0.04757195
-0.044289768 0.009081198 0.029860647 0.19316483 -0.032642566 0.112111375 0.07530245 -0.021964986
-0.026259765 -0.02343985 -0.071956865 0.25789648 -0.10142854 -0.15436423 0.07209245 -0.17405802
0.11443058 -0.011921744 -0.05738271 -0.13261119 -0.010143119 0.2936876 0.09050443 -0.0540163
0.16448832 -0.04197712 -0.042928845 -0.2481778 -0.2594079 0.2445329 0.10399216 0.012751479
-0.017998401 -0.13404392 -0.08382302 0.16442055 -0.12560944 -0.06441843 0.20349528 0.30688533
0.086304314 -0.100634515 0.04650411 0.049619764 -0.0070072487 0.053575512 -0.17244154 0.23608285
0.22381869 -0.113540925 -0.05852477 -0.08891663 -0.21772948 -0.00998301 0.08210602 0.0016230629
-0.16718376 0.106104776 0.06585925 -0.12940969 0.102228835 -0.03841834 -0.16036251 -0.047814175
-0.035448406 0.20152174 0.11360906 -0.05270742 0.0123694185 0.059830807 0.006626919 -0.1424658
-0.023451028 -0.096562095 -0.025099821 0.0270089 -0.13398206 -0.008058699 -0.08274961 -0.11488923
0.18921566 0.19695781 0.20658246 0.057640996 -0.09989538 -0.098549075 -0.12833141 -0.20430464
-0.118188515 -0.3015732 -0.3960549 -0.033410963 -0.07677492 -0.04032302 0.115592785 0.05768658
-0.028380942 -0.030473555 0.043544658 -0.2010615 -0.014643144 -0.32533276 -0.23862112 0.015953394
-0.03556046 8.102624e-05 -0.083016425 0.21355742 -0.02928364 -0.16732354 -0.16375516 -0.18801929
-0.19244227 0.16111723 0.047082577 -0.007259603 -0.12562782 0.1202985 0.25029683 -0.06970099
0.1025199 -0.08729666 0.13241196 0.09964236 -0.30872908 -0.34211683 -0.21956031 0.0682743
-0.003603805 0.14388674 0.24946547 0.29212737 0.2915269 0.06854361 -0.1404463 0.10931629
0.22238466 -0.13701874 0.109903395 0.0011840918 0.13089782 -0.09273513 -0.17611322 -0.20563184
0.13808328 0.17391291 -0.115645535 0.24613626 0.06806789 0.26296917 0.092831455 0.011805747
-0.14682308 0.026821474 0.2850791 -0.17975171 0.07002359 0.13309188 0.14620769 -0.081370816
-0.16977534 -0.09678792 0.113053754 0.12377417 0.18190718 0.025348667 -0.14074461 -0.10716711
0.1038502 -0.10014139 0.03534476 0.19766194 0.21977143 0.10540844 0.24338873 -0.066012114
0.16128248 0.24448064 0.06618902 0.09959147 0.14310032 0.25353068 0.04798114 0.052928507
-0.10968503 -0.0968079 0.19328378 0.06823477 -0.042028733 -0.058248416 0.087509096 0.010499339

conv2.bias f4 [16]
00000000: c7e4 7dbe 005b 7cbd 6d24 863c 753a a4bd
00000010: 51cb f7bd 05f4 82bb c834 c93d 75b5 1dbe
00000020: a4da 8abd 9077 b5bd 2ec2 43bc 1fa3 153b
00000030: 5363 0d3c 519e 1ebe ba76 27be 195a c5bb
-0.24794303 -0.061610222 0.016374791 -0.08018962 -0.120993264 -0.0039963746 0.0982452 -0.15401252
-0.06779984 -0.08860695 -0.0119481515 0.0022832823 0.008629638 -0.1549008 -0.16353884 -0.0060227034

fc1.weight f4 [256, 784]
00000000: c2a5 03bd a4b2 8e3c 2d63 623d 0ed9 363c
00000010: 980a 24bd 086e d3bc 3fc3 50bd 15f3 17bd
00000020: 2760 90bc 6688 e8bc f058 02bd 4e4a f7bc
00000030: 002b 6fbc 45fd efbc b1c4 03bd 7012 3bbd
00000040: c696 623a f911 eebb a892 323e f895 c0ba
00000050: 9848 ffbb c89d a7bc a883 da3c 1b8b 733c
00000060: 6edc af3c b159 253e 7caf 333d 95ee 343d
00000070: af33 233d 87e2 113d dde3 47bc 46d7 033d
00000080: 69fe 8b3d fe19 143c 6ce9 86bc 9a0c 013b
00000090: a74e 983d 0fdb 4abd 5cef 473d 59b7 8b3d
000000a0: 6f31 323d ed3f 0bbd 17dd ac3c 103c fa3c
000000b0: 033c f9bd fed3 93bd 7c21 88bc 4b38 ec3a
000000c0: c536 9f3b 7474 013c c24c f3bb 7b5e eabc
000000d0: c33d 5abd 16d3 b83d cab2 c83c 4494 843c
000000e0: 1c3e 89bc 62c2 4f3c 5814 183d eac0 fabd
000000f0: 3b64 203e 64bc ac3d e522 22bd 3fa4 e93c
00000100: 097a 113c d065 cb3c 5576 c3bd 6550 b23c
00000110: 82d0 a13d 8c89 893d 3cb5 803c 7e20 1abc
00000120: 8cef d13c 00d7 4dbd 8d37 373d 20cc 84bc
00000130: a2b5 063d 615f e73d 4736 b4bc ebad 42bc
00000140: 8bc4 febc dbf0 d83d 5cdf a0bc c108 513d
00000150: 9980 a33d 26c5 233d 0360 05bd 748f 07be
00000160: a8c1 afbb a339 13bd 3c03 e4bb 6849 5fbc
00000170: a8b8 42bc 6308 8ebd 7177 79bd 27cb 033d
00000180: cbd4 0bbe c859 323d 1519 d4bd 1cc1 ca3c
00000190: f5b7 c9bb a54f 563d 2c8b f03c fe4c 503d
000001a0: 3a97 93bd b9c7 f5bb cf14 8e3b fe79 05be
000001b0: 2d44 dcbd 9681 9ebd 56f6 c73a 8754 21bd
000001c0: 1534 003d 4478 ee3c 453a 56bd a357 53bd
000001d0: 21cb 08be d560 22bd 6a19 233d 9839 dcbb
000001e0: a1c4 2fbb 0d23 f03d 973a ca3d fcfd 363d
000001f0: 5e83 ef3b 0869 82bc 70bf 933d 5151 f23c
00000200: 4d27 903b 73e0 0a3d 5a2c 3d3d 82ae b5bc
00000210: 5768 89bc 7db0 013e 7f17 2b3e 994b 10bd
00000220: ecab 823d 3638 013d 3d8b 0d3e b68b 973a
00000230: ab57 bdbb 948e 543c 8b6f 8dbd d810 68bc
00000240: 9c13 ffbc 3e74 4b3b b531 9bbc 594c 62bc
00000250: 24ff 923c b21f a7bd 7a96 b73c afb2 60bd
00000260: 92cb 2dbd a888 053e 4fd0 293c 55eb 75be
00000270: 210c 8b3c 816d 79bd 587c 27bd 53e9 8ebd
00000280: e00f 123c 0afe b5bc 75d5 c7bd 843e 37b8
00000290: aebd b5bc 27cb 803d c8db 94bd e6a8 81bb
000002a0: a5cf 67ba 86ad 08bd c3e7 81bc 8280 dd3c
000002b0: 5a69 bb3d 142a 1d3d 48e1 b1bc d441 98bc
000002c0: a540 ae3d 05e7 893d e83f 24bb f601 8d3d
000002d0: c508 873d ab9e 933d 17ca 6a3d 035d f0bc
000002e0: 1506 853c 6522 433d 5b7e 903d 5df6 993d
000002f0: f821 b53c 16c9 113d d52a 19be 36d7 8fbd
00000300: d9ed 6dbb 0023 303d dbff 29bd e827 a53c
00000310: 5f05 de3c 593f 97bc aeb1 cabd ebf2 82bd
00000320: 53e2 bcbd c89a 5b3c 979d 7f3d 7cbd a4bc
00000330: b801 ed3b f474 0cbd 10f0 68bd 4fb6 cd3c
00000340: 1646 f5bb c561 78bd 9342 71bc db58 2f3d
00000350: 795c 7bbd 1a51 17ba b484 2c3d ba00 6cbd
00000360: 2cd9 f0bd f203 ddbd 0323 a1bd 06ea ee3c
00000370: f696 183c 3e2d 433d c7b4 62bd 77f4 aebd
00000380: 6c75 b83c 35a2 f1bc 86cf b93d 36fd 3bbd
00000390: 5ce9 d7bb 3301 e7bc d48a e33c dc7b ad3c
000003a0: 338c 823c 9b37 973d d5c8 623c 266c 493c
000003b0: 4ee6 abbc 2df2 183d a6d4 a73b 476e a4bc
000003c0: 1c04 fbbc a653 7f3d 555a 91bc ccf3 95bd
000003d0: a5fc 53bc b850 f83a c42d 253c 3eaf 60bd
000003e0: ab5a 01bd e5a9 c63c c24b 4a3b d6af b53d
000003f0: 6b0b f83c 3455 e6bc 5d36 92bc 7e90 963d
-0.0321405 0.017419167 0.055270363 0.011160148 -0.040049165 -0.025809303 -0.05096745 -0.037097055
-0.017623974 -0.028385352 -0.0318231 -0.030186798 -0.014597654 -0.029295573 -0.03217 -0.04567188
0.0008643683 -0.007265326 0.17438757 -0.0014693132 -0.0077906363 -0.020460978 0.026674107 0.014864708
0.021467414 0.16147496 0.043868527 0.044172842 0.03984421 0.035616424 -0.012200323 0.032187723
0.06835634 0.0090394 -0.016468726 0.001969135 0.07436877 -0.049525317 0.048812255 0.0682208
0.043504175 -0.03399651 0.021101518 0.030546218 -0.121696495 -0.07218169 -0.01661753 0.0018022148
0.004858824 0.0079013 -0.0074249217 -0.028609505 -0.053281557 0.090246364 0.024499316 0.01618398
-0.016753249 0.012680622 0.037128776 -0.12243827 0.15663235 0.0843437 -0.03958406 0.028520701
0.008879193 0.024828821 -0.095440544 0.02176685 0.07901098 0.06715688 0.01571142 -0.009407161
0.02562692 -0.050253868 0.04473071 -0.016210616 0.032888062 0.11297489 -0.021998538 -0.011882286
-0.031099578 0.105928145 -0.019637756 0.05103374 0.079835124 0.039982937 -0.032562267 -0.13238317
-0.005363662 -0.03594364 -0.0069583934 -0.013628341 -0.011884846 -0.069351934 -0.060904924 0.032176163
-0.13655393 0.043542653 -0.103563465 0.024750285 -0.0061559626 0.05232205 0.029363237 0.050854675
-0.072065786 -0.0075006154 0.0043359767 -0.13034818 -0.10755191 -0.0773956 0.0015255909 -0.039387252
0.03129967 0.029110081 -0.052301664 -0.05159725 -0.13358738 -0.039643127 0.03981916 -0.006720733
-0.002682008 0.117254354 0.098744564 0.044675812 0.0073093614 -0.015919223 0.07214248 0.02957979
0.0043992163 0.033905458 0.046184875 -0.022177938 -0.016773386 0.12664981 0.16708182 -0.035228346
0.06380448 0.031547748 0.13822646 0.0011562023 -0.005778273 0.012973446 -0.06906041 -0.014164172
-0.03113728 0.0031044628 -0.0189446 -0.013812148 0.017943926 -0.08160342 0.02241062 -0.054857906
-0.042430468 0.13040411 0.010364606 -0.24015553 0.016973557 -0.060895447 -0.040890068 -0.06978097
0.008914918 -0.022215862 -0.097575106 -4.3688822e-05 -0.022185173 0.06288748 -0.072684824 -0.003956902
-0.0008842892 -0.03336861 -0.015857583 0.027038816 0.091509536 0.038370207 -0.021713868 -0.018586077
0.08508424 0.067335166 -0.0025062505 0.0688514 0.065934695 0.07207998 0.057321634 -0.029341226
0.016238252 0.047640223 0.070553504 0.07517693 0.022110924 0.03559216 -0.14957745 -0.0702347
-0.0036305098 0.04300213 -0.04150377 0.02016063 0.02710217 -0.018462824 -0.09897171 -0.06393989
-0.092228554 0.013403602 0.06240615 -0.020109884 0.007232871 -0.034291223 -0.056869566 0.025111346
-0.0074851615 -0.060640115 -0.014725345 0.04280935 -0.061367486 -0.0005772278 0.042118743 -0.05761788
-0.11760172 -0.10791768 -0.07868006 0.029164325 0.009313336 0.04765057 -0.055348184 -0.08542722
0.022516929 -0.029496292 0.09072785 -0.045895778 -0.006589098 -0.028198814 0.02777616 0.021177225
0.015935993 0.07383653 0.013841827 0.012293851 -0.020983841 0.03734033 0.005121785 -0.020072116
-0.030641608 0.062335633 -0.017743269 -0.07321891 -0.012938653 0.0018944954 0.010081712 -0.054854624
-0.03158061 0.024250934 0.003086791 0.08871429 0.030278882 -0.0281168 -0.017848188 0.073517784

fc1.bias f4 [256]
00000000: ce26 973c ea06 64bb 8307 043d 8904 393d
00000010: 1b7c 97bc 9f78 0f3d 3a20 23bd 8f7f ab3a
00000020: 1b36 97bc 4fce 31bb 9545 0539 36b6 503d
00000030: b31d 9abc 505a f3bc 0bc1 e2bc a052 2bbc
00000040: eef5 d03c 80eb e83b e45d db3b 84b4 8f3c
00000050: 3016 c13c 06df b138 05c9 ee3c 9da9 ffbb
00000060: 0339 24bc b23a 063d 2841 1cbc 1113 b73c
00000070: c87b 483c f09c 113d 2afa d2ba 0b1d 5d3c
00000080: 8fc9 9ebc ade2 3c3d c2da 31bc 4c83 ae3c
00000090: d4ac 52bc ddf6 23bd f25d 72bc 3178 843c
000000a0: 2ca0 2f3d 5d0d 18bb 504b 1dba 70d5 563c
000000b0: 1c24 cbbc 33db e63c 35d0 493c 1afe 94bc
000000c0: e4b5 d13c 1d9f 8fbc d2ac b33c df69 75bd
000000d0: eb36 253d 228e 513c 7bb1 23bd 4677 373d
000000e0: ba99 26bd 3d81 5fbc 9c33 16bd ce5c 6fbc
000000f0: 10d0 0abb 1b61 af3c f20b cf3b effd ccbc
00000100: 7fda 193c 95ee c33c 9337 11bc 7659 dd3c
00000110: 7a0d e83c e192 06bd 53b1 bd3c cb8a 2abc
00000120: f0ad bf3c 43f2 8b3c 7642 95bb 1801 43bd
00000130: 668e 87bc dd79 c13c 2fc3 cabb a558 b63c
00000140: e2f2 ecbb 56eb 9c3c b27e 42ba 3d61 1cbd
00000150: 44ca 6bba 18af 953c cd26 563c d4de 593b
00000160: fabe e53b 45d8 fdbc 63af 7d3c 0a9b 173b
00000170: 09ec d8bc 471e 893c 9944 443b 2b0a 3a3d
00000180: 3ea2 07bd ad69 a83c 2faa aebc be93 b43c
00000190: ccfc 633c b2b2 163d 7862 45bc 9f5f 373d
000001a0: 3264 553c f03c 07bc 4916 283c 1481 a4bc
000001b0: c2c6 aa3c 1fb3 21bd 44de a7ba 5f58 52bb
000001c0: db64 093d 34f1 cc3b bfa4 2f3c 0cc2 1cbd
000001d0: 3ee3 3bbb 22ad 903b 60ed 9e3b 84dd 54bc
000001e0: adb3 b3bc bee5 19bd 8bce b7bc bb9e 383c
000001f0: 7e74 533c 8f1c 203d 4063 2bbb d670 bdbb
00000200: a5b6 883c 195e 88bb 3802 42bd afa2 1a3c
00000210: fd3c 29bd 547c c03c 907f debc 645c 5abc
00000220: 42c8 88bc 88b3 f03c 0a3f 11bd d673 a33c
00000230: 73d8 053c 1e99 243c e896 50ba 7d63 34bd
00000240: a8dc 893c 9f10 163d bfda 813c 0f2d c93a
00000250: f473 e23c 687b 43bc a8e9 80bc 1435 e6bc
00000260: 0191 853d fdca f73c 6957 683c 3dff 63bc
00000270: 5725 c23b 4423 5abc bf43 103c 6a2a 50bd
00000280: 0156 073c 0506 6e3d 2978 043c 264d 863b
00000290: d813 ecbc 72ac cabc 2b2b 3e3c 9531 acbc
000002a0: 693e b0bc 3313 c23c f5c6 a23c 52e6 a63c
000002b0: 4db1 5c3c 98c3 34bd 7a3c 58bc 5249 893b
000002c0: 1b4d 81bc b40b 1a3d 3e92 873c 0fc6 a33c
000002d0: 25d4 24bd a844 2d3d f619 cabc 9a6b 93bc
000002e0: 34f7 e83c 8f34 ea3c 1efb 19bd 13eb 0e3c
000002f0: 06ba d73b 2ffb 81bb 22b5 373c 1a38 5dbc
00000300: c826 143c 9b10 8ebc 21b5 153c 8ed3 b73c
00000310: 483e b23c e5de 303d ca0f be3c 6e1f b03c
00000320: 56fe 343a fa49 b4bc 8972 653d e3ce 1f3d
00000330: 8c7f 263d 751f 7a3c 2fac 0d3c 150c 9a3c
00000340: c130 a03c 4b3a e23c 5b4c 293d 225e 413c
00000350: 9719 393c 3c92 dcbc 5811 cf3c b5be 833d
00000360: 6ff7 ac3c e762 523c 12ca 913c 7c8b 74bc
00000370: 3bb3 14bd d777 1cbc dd07 95bc dce8 d4bc
00000380: c0d0 eabc ceee d1bc ddaa b93c 2380 233d
00000390: ccf0 d73b 263d 1dbd 9687 f43c 9eb7 433d
000003a0: 131f c23b 168c 99bb 9072 853c 9b69 aabc
000003b0: 4733 1dbb 2cac 2bbc 85ac 1bbd 83e0 38bd
000003c0: 0dc1 17bc 7d2c db3c a089 243d e907 12bc
000003d0: 0785 f4bc ab32 1f3d 1c7f d53c 2c04 79bc
000003e0: dd0a f63c 6a5b 8bbc 5705 5fbc a959 1c3c
000003f0: 2362 3cbd 12f7 61bc 62c7 17bc a9a9 363c
0.01845112 -0.003479416 0.032233726 0.04517034 -0.018491795 0.035027143 -0.039825656 0.001308428
-0.018458417 -0.0027131026 0.0001270979 0.05095502 -0.01881299 -0.02970615 -0.02767994 -0.010456711
0.025507893 0.007108152 0.0066945422 0.017542131 0.02357015 8.481559e-05 0.029148588 -0.007802202
-0.010023358 0.03277082 -0.009537019 0.022347959 0.012236543 0.035550058 -0.0016096283 0.013495694
-0.01938322 0.046114612 -0.010855379 0.021302842 -0.012858588 -0.04003035 -0.014792906 0.016170593
0.04287736 -0.0023201325 -0.0006000297 0.013112411 -0.024797492 0.028180694 0.012317707 -0.018187571
0.025599428 -0.017531926 0.021932993 -0.05991542 0.040335577 0.012790235 -0.03996418 0.044791482
-0.04067395 -0.013641653 -0.036670312 -0.014609529 -0.0021181144 0.021408608 0.0063185627 -0.025023429
0.009390472 0.023917476 -0.008863348 0.027020197 0.028326739 -0.03285492 0.023155844 -0.010409067
0.02339837 0.017083293 -0.004555042 -0.047608465 -0.016547393 0.02361768 -0.0061878185 0.022259066
-0.0072311023 0.019155186 -0.0007419392 -0.03817867 -0.00089946785 0.018271968 0.013070774 0.0033244388
0.0070112916 -0.030986914 0.01548371 0.0023133182 -0.026479738 0.01673807 0.0029948114 0.045419853
-0.03311371 0.020558203 -0.021321384 0.022043105 0.013915252 0.03679151 -0.012047403 0.044768926
0.013024377 -0.008254275 0.010259219 -0.02008108 0.020846728 -0.039477464 -0.0012807329 -0.003209613
0.03354345 0.0062543396 0.010720431 -0.038270995 -0.0028669382 0.0044151703 0.0048500746 -0.012992267
-0.021936262 -0.037572615 -0.022437355 0.011268313 0.012906192 0.039089736 -0.0026151687 -0.0057812734
0.016688654 -0.004161608 -0.047365397 0.009438201 -0.04131793 0.023496784 -0.027160436 -0.013327692
-0.016697053 0.029382482 -0.03546051 0.019952696 0.008169281 0.010046272 -0.0007957057 -0.044040192
0.01682885 0.036636945 0.015851377 0.0015348512 0.027643181 -0.011931278 -0.015736416 -0.028101481
0.06521798 0.03024816 0.014180996 -0.013915834 0.0059248614 -0.013314072 0.008805214 -0.0508217
0.008260251 0.05811121 0.008085289 0.0040985523 -0.028818056 -0.024740431 0.011606972 -0.021019736
-0.021514134 0.023690796 0.01987026 0.020373497 0.013470006 -0.044131845 -0.0131980125 0.0041896487
-0.015783837 0.037608817 0.016549226 0.019991903 -0.04024138 0.042301804 -0.024670582 -0.017995644
0.028438188 0.028589515 -0.037593 0.008723038 0.006583455 -0.003966711 0.011212619 -0.013502145
0.009042449 -0.017341902 0.009137423 0.022439744 0.021758214 0.04318132 0.023200888 0.021499362
0.0006904354 -0.022007931 0.056017432 0.039015662 0.040648982 0.015266289 0.008647009 0.01880459
0.019554498 0.027615687 0.041332584 0.011802228 0.011297605 -0.026925199 0.025276825 0.06432859
0.02111408 0.012840963 0.01779655 -0.014925834 -0.03630374 -0.009550056 -0.018192226 -0.025989942
-0.028663993 -0.025626566 0.022664482 0.039917123 0.0065899845 -0.038388394 0.029849809 0.047782533
0.0059241145 -0.004685889 0.01628998 -0.02080231 -0.0023986863 -0.010478061 -0.038006324 -0.045135986
-0.0092623355 0.026754612 0.040170312 -0.008913019 -0.029848589 0.03886668 0.026061587 -0.015198749
0.030034477 -0.017011363 -0.013612113 0.009542861 -0.045992028 -0.013791816 -0.009263845 0.011148849

fc2.weight f4 [10, 256]
00000000: c735 2d3c 7e35 88bd eb3f cb3b 5d24 2abe
00000010: 96f5 32bd 1c4c e9bb a5fb 4fbd dc8d e7bc
00000020: 5372 e2bc c50b 9b3d 2adb 89bd 18e9 08bd
00000030: 2e78 513d 321d 113d 882e 993c becf 0a3d
00000040: 3acd dcbd 9ca6 913c 8076 d33c e989 44be
00000050: f8b7 993d bce9 423d abb6 023d 8a0b a83c
00000060: f18b f8bc ad4a 9bbc 17fa 2ebc 3113 35ba
00000070: ed27 44bc c16c 7cbb 65a5 383d a317 be3c
00000080: dd57 13be a357 7c3c cf84 40bd 5723 41bd
00000090: 916c cd3d 68e6 a4bd 6077 4a3d 8d84 c33c
000000a0: 65d6 023d 4d3a 82bd 7b1b 663e a8a0 ae3c
000000b0: 8ac1 9dbc 8c99 b0bc 2fcc c03c 2439 e93b
000000c0: 917b 2dbd 8e2a 563d 85c2 3b3c 17b9 2abd
000000d0: ed5c 063d a20f c5bc ebc5 143c e9a8 38be
000000e0: 6867 d33c c722 c83d a027 063d 91e5 223e
000000f0: 563b 56be b25c 66bd f40e 213d bb9b 7a3c
00000100: 58be a93c b0f7 b13d 7f42 ef3d 7220 c2bc
00000110: fe7d c03d 358e 1a3d 8b14 26bd 3203 bbbc
00000120: 6422 17be 365a 773d 296e 1c3d 24bc 053d
00000130: a342 383d ad22 fabb a1af 7c3d 10b3 cebd
00000140: 058c f23c 9060 14bd 00ec 39bc e190 a43d
00000150: cd2c 3abb 2f82 7b3d 3ac6 8abc f394 efbc
00000160: 9b54 92bd d155 b1bc c68e 08be 5bbe 35bd
00000170: 426a 55bd b188 8c3b c260 bfbc 3ef6 17be
00000180: 35cd 8bbc 25f4 0e3d 591f b6bc 1106 55bd
00000190: a44e 0c3e a93a b1bd d3d0 a1ba ca21 f13d
000001a0: 89d0 df3c d2fa f8bd 1f32 a63c 7f97 0abd
000001b0: 16bc 28bd 2b4d 75bd 62e6 0abc 0d28 3ebd
000001c0: ff17 c23c 328d 49bd ee2e 6a3d 3919 de3d
000001d0: 395d 4fbd 1299 1fbd e5ad 09bd afb1 24be
000001e0: e8b4 b4bc a427 c7bd cf54 853c 6c0b 583d
000001f0: 69ae 9f3c e8bd d5bd 995e 023e 489e 1ebd
00000200: cff0 2f3c 2859 843d bb3b aabc 5fb4 04be
00000210: f2e2 80bd 9692 47be 7bf0 73bc 8bd6 863c
00000220: fcbe 7a3b d2d5 76bd b190 3dbd 6470 e4bd
00000230: 1d15 a7bd f0be d6bc 78b9 683d f2a9 92bc
00000240: 35b5 a63c 7dd2 cf3c f2ec 183d b9ac d63d
00000250: 1bc2 58bd 6dd6 17bd 6be2 0f3d 586a 9c3d
00000260: c435 3ebd e217 b6bd 8dfa d43d cf9d 543d
00000270: ef37 3b3d 4ec8 59bc 993d 4abe 07c3 21bc
00000280: 7b0b 103d 1bfc a53d 07a5 ba3c f05a e83b
00000290: d0a2 ea3c 6305 43be 6f06 2fbe 6d31 5bbd
000002a0: ca22 39be 1123 05bd 3113 953d 9f13 ac3d
000002b0: 6d35 0d3d 961b e53c c431 a23d 1d7e 17bc
000002c0: bab2 88bb 12ea 11be ce3c b63d 52d4 eabd
000002d0: 3958 29be 6052 a33d dda9 8e3d aeb4 c9bc
000002e0: d135 313d 6dd1 d23d e37e 62bd 411d 5f3b
000002f0: cd3d bf3c 8f9e c4bd a5b1 b9bc 3c96 3e3d
00000300: 34f4 013d e217 0b3d 19b8 183c 3480 eabc
00000310: e23b 82bd e2a5 b63c cc2d 783d aa79 8f3d
00000320: fdf5 cd3d 298a 4fbd 535a d9bd 8d87 8cba
00000330: eac4 9f3d 68ee 933c dc1c 823d 5155 c13a
00000340: 0347 8abd 8bf7 d93d f896 f9bd db09 90bc
00000350: 5b16 3b3d 7053 1c3d ff82 19bd 34ac 05be
00000360: 3148 0c3d b68a 893d 35ad 6d3d 5b47 0dbe
00000370: 8084 5f3d 5ed8 783d 2b4a 443d 673c 1c3c
00000380: 5c72 7c3d 489c 353d a04e 973d f28f 39be
00000390: 1311 2ebd e1dc 84bb 1a11 013c 17d6 1ebe
000003a0: a0e4 df3d 6372 aa3d 34c5 1a3d 3b17 34be
000003b0: 3a26 cf3d 97f0 043d c762 23bc ba58 89bc
000003c0: 2814 b9bd 8de6 1a3d ff87 683d 3aa7 50bd
000003d0: ad1c 7bbd 8a29 ac3c a6cb b6bb 67ae 9abc
000003e0: b7be 08bd 026e 4c3c e832 f83c 6521 d9bd
000003f0: 56d6 61bc d0d7 d8bc 8029 f43d 9163 abba
0.010571904 -0.06650828 0.006202688 -0.16615434 -0.04369124 -0.0071196686 -0.050777096 -0.028265886
-0.027642405 0.07570604 -0.06731255 -0.03342542 0.051140003 0.035428233 0.018698946 0.033889525
-0.10781331 0.01777964 0.025813341 -0.19193234 0.075057924 0.047586188 0.031912487 0.020513315
-0.030340167 -0.018956507 -0.010679743 -0.0006907462 -0.01197241 -0.003851697 0.045079608 0.02320463
-0.14388986 0.015401754 -0.047001656 -0.047152843 0.10030473 -0.08051759 0.04943025 0.023866916
0.031942744 -0.06358776 0.2247142 0.021316841 -0.019257326 -0.021557592 0.023534862 0.0071174074
-0.04235417 0.052286677 0.011459951 -0.04168042 0.032803465 -0.024055306 0.00908039 -0.18033184
0.025806144 0.09772258 0.032752633 0.15907885 -0.20921072 -0.056240745 0.0393209 0.015295918
0.020720646 0.08689821 0.11682605 -0.023697112 0.09399031 0.037733275 -0.040546935 -0.022828672
-0.14759213 0.060388766 0.038190994 0.032650128 0.044985425 -0.007633528 0.06169093 -0.10092747
0.029607782 -0.0362249 -0.011347771 0.08035446 -0.002840805 0.06140345 -0.016940225 -0.02924583
-0.071450435 -0.021647366 -0.13335714 -0.04437099 -0.05210329 0.004288756 -0.023361567 -0.14840028
-0.017065624 0.034900803 -0.022231745 -0.05200774 0.13701874 -0.08653767 -0.001234556 0.11774023
0.027321117 -0.12157215 0.020287571 -0.033835884 -0.041194998 -0.059888046 -0.008477779 -0.046424914
0.023693083 -0.04920692 0.057173662 0.108446546 -0.050626013 -0.03896434 -0.033613104 -0.16083406
-0.02205892 -0.09724358 0.016275791 0.052745268 0.019492345 -0.10436612 0.12731399 -0.038725168
0.010738566 0.06462318 -0.020780435 -0.12959431 -0.062932864 -0.19489512 -0.014888878 0.016459724
0.0038260808 -0.06026251 -0.046280567 -0.11154249 -0.08158324 -0.026214093 0.0568175 -0.017903302
0.020350078 0.025368923 0.037335344 0.10482163 -0.05291949 -0.037069727 0.03512804 0.07637471
-0.046437994 -0.08891274 0.10399351 0.05190831 0.04570764 -0.013292385 -0.1975006 -0.009873158
0.0351672 0.08104726 0.02278377 0.0070909187 0.028642088 -0.19045024 -0.17092298 -0.053513933
-0.18079677 -0.032504145 0.07279051 0.0840218 0.03447478 0.027967256 0.07919648 -0.009246376
-0.0041716965 -0.14249447 0.08898316 -0.11466278 -0.1653756 0.07974696 0.069659926 -0.024622288
0.043264214 0.10293851 -0.05529679 0.0034044536 0.023344899 -0.09600555 -0.022667715 0.046529993
0.03172703 0.033958323 0.009321236 -0.028625585 -0.06359078 0.022295896 0.06059055 0.070056275
0.10056684 -0.05066887 -0.10612931 -0.001072155 0.0780123 0.018058017 0.06353161 0.0014750158
-0.06751826 0.10642918 -0.12186998 -0.017582824 0.045675617 0.03816551 -0.037478443 -0.13053972
0.034248535 0.0671591 0.05802651 -0.13796751 0.05456972 0.06075322 0.047922295 0.009535885
0.0616325 0.044338495 0.073880434 -0.18121317 -0.042496752 -0.004054651 0.0078776125 -0.15511356
0.10932279 0.08322599 0.037785724 -0.17586987 0.10114713 0.032456007 -0.009972281 -0.016765941
-0.090370476 0.037817527 0.05677032 -0.05094073 -0.061306644 0.021015901 -0.005578476 -0.01888199
-0.033385005 0.0124774 0.030297711 -0.106020726 -0.013784012 -0.026470095 0.11921978 -0.0013075938

fc2.bias f4 [10]
00000000: e84c 79bd bcb1 bfbd ddeb 2b3d f601 643d
00000010: eedb 14bd 0e38 10bd 6bef 813d cb82 d4bc
00000020: e32a cabc d217 85bd
-0.06086436 -0.09360072 0.041972984 0.055665933 -0.036342554 -0.035209708 0.063444935 -0.025941273
-0.024678653 -0.06498684
